processing_eeg_methods/myModel.pth (torch, 8632 bytes, 9 tensors)

conv_time.weight f4 [10, 1, 75, 1]
00000000: 8ea5 973c aba3 fe39 1b01 99bd ea2f 04bd
00000010: 86a4 3fbc 5ac8 493d 58a6 183d 82a7 dd3c
00000020: da85 fbbc 6de3 833b ced4 583d 7d61 5f3c
00000030: 16e3 073d bd74 78bd 7f1e 83bd cb9a 533b
00000040: 5198 09bc 1795 70bc 4481 10bd 7771 0c3d
00000050: d9fc 5e3c 1c44 a7bd bb77 e13c 98be 2e3d
00000060: 6766 ddbb aa0f 3ebc a110 babd 65cf 11bd
00000070: 477a c2bb 55e1 cfbc 0195 6e3d d042 13bd
00000080: c60a 263d 3626 643d 407b 2ebd bdac 7c3d
00000090: 45b0 5cbc 774f 63ba cb46 453d b18a bcbc
000000a0: 2656 513c fe03 033c bd9c 463d be8c 713d
000000b0: b5ef d3bc 98c0 40bd bf38 4cbd 1bb6 ab3d
000000c0: 2079 c3bc 9ef0 193a 7d94 a33d b6ef 57bc
000000d0: 43c3 5fbc a343 72bc ab89 86bd 0cba 32bc
000000e0: 7437 94bd 2968 793c d64b 59bd 4722 f2bc
000000f0: 167b 543c 47fe 96bc 7b35 3c3d 5341 65bd
00000100: 8568 8e3d b1bd 493d 651c 5e3d 9919 e33d
00000110: e922 953d ceb0 e63d ea14 9b3c 2170 993d
00000120: 971a 783d dce0 a33d 8d3f 0e3e a52a 923d
00000130: de13 b53c b56f 9e3d f951 073d 67be 843d
00000140: 83f5 1abd 4c4a 3e39 3890 a6bc db31 a2bc
00000150: 6f23 ccbc fceb 80bd ceec e8bb 725f 433a
00000160: 4235 6abd 880d 303d 599e b1bd 2372 98bc
00000170: 6b53 0b3d 6c39 653d a1b4 f93c 9743 563b
00000180: e130 a23d 98d1 973d 8ee0 603d 8dbe ad3b
00000190: 3829 10bd 0af9 c63d 06d6 69bd 5473 903c
000001a0: def3 94bc ad7b 1c3d 7ef0 523d 4b11 2d3d
000001b0: b16f ff3c 4cc9 463d 2098 e33c 68b1 883c
000001c0: 9265 1bbd ffa8 a9bc d5fe 92bc a339 82bd
000001d0: de1d e6bc befb 8ebd 11ae 44bd 5d70 b2bc
000001e0: ad2b 693c 83b2 48bd ca6c b6bd aa33 abbd
000001f0: 07a0 4fbd f635 b8bd 3642 8cb9 3b73 41bd
00000200: e60a 68bd a37d debd ff8a 6ebd 5148 943a
00000210: f584 0c3d e426 5d3c 824a ab3d c9c8 b13c
00000220: a354 aa3d ef39 8f3d d943 b83d 83c4 813d
00000230: f14e ab3b 6b95 c439 e2e0 55bc f55e 143d
00000240: 34f4 7dbb c504 cc3d d3e6 c8b9 fd41 9d3d
00000250: c139 b1ba 7b82 7c3d cc50 99bb 455e d1bc
00000260: d796 d0bd 351e bebd 3bab 74bc 5aaf 33bd
00000270: a536 89bd 4c17 133c 4fe6 973b 7c6c b6bd
00000280: ae2b 0dbd fa06 a5bd f60f acbc 947d 913c
00000290: 36a1 aa3d 0cf6 953c 48e0 973d 2b88 a23c
000002a0: 7503 2cbc ae76 d33d 61a8 d63d 2b0e 183d
000002b0: 85c2 a53c 8172 9bbb 3db6 a1bc 8014 833d
000002c0: e516 93bd d113 493d 2573 9d3c 5f6a 8dbd
000002d0: 32bb b6bd c0bf 36bd 4184 3fbd bb0a cf3c
000002e0: 68f6 e33c e7da 723b 9c90 d3bc 4bc5 863d
000002f0: 1e80 363d 9f8e 5f3d 66c6 703d 36f5 be3d
00000300: fb02 5fbc 02fb 393c a9b5 1ebd 8a74 483d
00000310: 2d47 43bc b6f8 203d aeee 813d 8b15 e43b
00000320: 33d3 263d ab2d 22bd 4575 073d fef2 1dbc
00000330: 1fe0 cc3d 7ba3 173d 13f8 b33c 90c7 203d
00000340: d073 bc3c bb24 9b3c dd16 05bc 323c c23d
00000350: 5965 8f3d b805 183d 6bb9 443d 8e53 123d
00000360: af25 6b3d b40e 6e3d 4855 0f3c c197 f9bc
00000370: bc34 8abd 7a9d 013d 83e8 4ebd 0f30 a8bb
00000380: c321 cbbd 1e90 3ebc 5186 25bd f5da 1ebd
00000390: 1939 943c a8ae 673c ae7e 203d 91f4 a6bc
000003a0: 63e9 413d f5e6 1abd 06d2 4f3c 684e 913d
000003b0: 1327 e7bc 1dd5 063c 1d79 633d 4020 6a3d
000003c0: cb92 f9bc b543 113d f0f7 023d 2afe 7fbd
000003d0: 75a5 573d 4be1 5cbd 4610 6cbc cb31 10bc
000003e0: e6f9 47bc 9d03 98bd aae1 3cbd d0cb 00bd
000003f0: 935c aebd 0c23 80bc a214 a4bc fb59 9bbd
0.01851156 0.00048568597 -0.07470914 -0.032272257 -0.01169694 0.049263336 0.037268013 0.027057413
-0.030703474 0.004024914 0.05293732 0.013634083 0.03317555 -0.060658205 -0.06402301 0.0032288309
-0.0083981315 -0.014683983 -0.035279527 0.034287896 0.013610088 -0.08167288 0.027522912 0.042662233
-0.006756592 -0.011600414 -0.09085203 -0.035598177 -0.0059349868 -0.025376001 0.05824757 -0.03595239
0.040537618 0.055700503 -0.04259801 0.061688174 -0.01346976 -0.0008671204 0.048163217 -0.023015352
0.012776887 0.007996557 0.04848932 0.058972113 -0.025871137 -0.04705867 -0.049858805 0.08384343
-0.023861468 0.00058723416 0.07987306 -0.01317971 -0.013657394 -0.014786634 -0.06569227 -0.010908615
-0.07237139 0.015222588 -0.05305084 -0.02955736 0.012968799 -0.018431796 0.04594944 -0.0559705
0.06953529 0.04925317 0.054226298 0.11088867 0.07282049 0.112641916 0.018930871 0.0749209
0.060572233 0.08001873 0.1389143 0.0713704 0.0221042 0.0773615 0.03303716 0.06481629
-0.037831794 0.0001814749 -0.02033244 -0.019799164 -0.02491924 -0.062950104 -0.0071083074 0.0007452882
-0.057179697 0.042981654 -0.086727805 -0.018609112 0.0340151 0.055962965 0.030481638 0.0032694095
0.07919479 0.07413024 0.054901652 0.0053022564 -0.03519556 0.09715469 -0.057088874 0.017633118
-0.018182691 0.038203884 0.051498882 0.04225282 0.031181188 0.048531815 0.0277825 0.016686156
-0.037938662 -0.020710466 -0.017943779 -0.063586496 -0.028090414 -0.0698161 -0.048017565 -0.021782095
0.0142316045 -0.048998367 -0.089074686 -0.083594635 -0.050689723 -0.08994667 -0.00026752212 -0.047229033
-0.05665102 -0.10863807 -0.058238026 0.0011313056 0.034306485 0.013498042 0.083638206 0.021702187
0.083169244 0.06993472 0.08997316 0.0633631 0.0052279164 0.00037495358 -0.0130541045 0.03622337
-0.0038750293 0.09961847 -0.0003831895 0.07678602 -0.001352124 0.061647873 -0.004678821 -0.025557647
-0.101850204 -0.09283105 -0.014933403 -0.0438684 -0.06699876 0.008977722 0.004635609 -0.089074105
-0.034465484 -0.08057971 -0.021003705 0.017760076 0.0833153 0.0183058 0.07415825 0.01984032
-0.010498871 0.10325371 0.104813345 0.037122887 0.020234356 -0.0047438745 -0.019740218 0.064003944
-0.07182101 0.049091164 0.019219944 -0.06905054 -0.089224234 -0.04461646 -0.046756987 0.025273671
0.027827457 0.0037056745 -0.025825791 0.065805994 0.044555776 0.054579373 0.058782957 0.09324114
-0.01361155 0.011351349 -0.038747463 0.048939265 -0.011918825 0.03929969 0.06344353 0.006960576
0.04072876 -0.039594334 0.03307082 -0.009640453 0.10003685 0.03702114 0.021968877 0.039252818
0.023004442 0.018938413 -0.008123127 0.094841376 0.070017524 0.03711483 0.04802839 0.035724215
0.057408985 0.05811949 0.00874836 -0.03046787 -0.067483395 0.031644322 -0.05051471 -0.005132682
-0.09918549 -0.01163104 -0.040411297 -0.038783032 0.018093633 0.014140762 0.03918331 -0.02038029
0.047341716 -0.037817914 0.012684351 0.07095033 -0.028216874 0.008229521 0.055535425 0.057159662
-0.030465504 0.03546496 0.031974733 -0.06249825 0.052648026 -0.053925794 -0.014408177 -0.008800934
-0.0122055765 -0.07422564 -0.046113648 -0.03144437 -0.08513751 -0.015641712 -0.02002937 -0.07585522

conv_time.bias f4 [10]
00000000: 2d10 e837 93c2 1db7 4f3e 9537 27a0 40b7
00000010: 609c d037 465e 25b8 f326 30b8 065b c936
00000020: 8ddb 03b8 e1ea f8b7
2.7664088e-05 -9.403232e-06 1.7791199e-05 -1.148138e-05 2.486835e-05 -3.9426865e-05 -4.1997944e-05 6.0008633e-06
-3.1437306e-05 -2.9673278e-05

conv_spat.weight f4 [5, 10, 1, 8]
00000000: b83d 87be c2a7 c03d 8de8 68bd e739 153d
00000010: 6818 a6bd 83a7 9abd ed8f 473e 6596 2bbe
00000020: 84b8 203e 6156 003e 5e04 3e3e 5d02 38bd
00000030: 2faa 113e ead8 2cbe 7673 86bd df6f aebd
00000040: d5cd 043d 61fa 97bd 5791 0abe 63d8 4cbc
00000050: 8797 dabc 4b1d 843e e131 57bd b44b f63d
00000060: ecd0 abbd 83a9 d73d 3a72 423e 0b16 5cbd
00000070: e0d6 83bd cbb7 82be df6f 7abe 9438 243c
00000080: 0a87 72be 96fd 483e 30a3 9bbd 5a77 e9bd
00000090: 793f 223d f7e1 733e b44a 0f3d bc6c 023d
000000a0: 9378 27be 2fdb 0abe 7b37 7b3d 647f bc3d
000000b0: 33e5 bc3d 9aad 693e d584 913c 6065 93bd
000000c0: 3286 fd3d e239 a93d 2f51 103e 3e05 b73b
000000d0: a196 363d 20ec 09be 69e5 763e a848 41ba
000000e0: 2834 c63d 2883 163e 232e 7d3d 4788 77bd
000000f0: 4e34 3c3c 30a3 073e 2e13 94be 4c18 2dbd
00000100: 23b0 033e afc4 4bbd 28a8 093e afed 1f3e
00000110: 0a75 963d 1d61 01be da1d 5d3d 3674 973d
00000120: afaa c33d e0e1 1fbe 7a62 853d bf30 1e3d
00000130: d631 6abe 9ff7 903e 9d38 1f3e 6877 dfbd
00000140: eda9 213e 52d1 bcbd 4da4 04be 07ae 00be
00000150: de7f c2bd 3244 74be d2c3 783e aea8 cd3d
00000160: 6466 fbbd 1bea b6bd 056e 1f3e b61f 103e
00000170: 50ff 21be c9de 03bc 81ea 47be 8bd5 543b
00000180: 9288 2d3e 7833 a73c 643a 44be 2a6e 883d
00000190: 6da4 72bd e366 fe3b 7bf4 e43d d4f6 7cbe
000001a0: 303b 373e 91e7 6a3e 8997 13bc c770 48be
000001b0: 7c35 1a3c fe89 83be 12c7 84bd 8be2 a1bd
000001c0: 6d0f 8d3c 354e 29bd 4401 333d 270a b8bd
000001d0: e69d 603d c029 533b f306 4bbe 8b06 083d
000001e0: 8434 93bd 9527 0f3d a9c1 6b3e 7cd4 ee3d
000001f0: 6b63 babd 4ef1 32be 2cdc 013e 36c0 00be
00000200: 0aff 1d3d b0ef 493d c5c4 393d 32e3 55bd
00000210: 4528 b73d 90d4 0dbe 4e09 603e 732d 8dbc
00000220: f9fd 7fbc 8911 58be 7115 d7bd 1b8f a13d
00000230: ef8f 52be 7430 b4bc c988 c73d c7b5 833e
00000240: c05b 453e f6d8 71be 5714 84be 47ae eb3d
00000250: 853b 1ebe c7d0 483e 7f01 d43c 67a4 133e
00000260: b69c bebb 7bae c8bd 00a1 8f3d d9b7 10be
00000270: 718a 85bc 4b18 223c 1b94 82be 7d47 d23d
00000280: 9f5e ff3c da41 1e3b 1d47 233e b6ca bcbc
00000290: 4a0e eb3d 09f0 1dbe 4c13 d9bd 363f ad3d
000002a0: 2e05 4cbe 0672 30be c63e af3d 0dd3 00be
000002b0: 5b1f 733d 7fa8 34be 9f17 d53c 03d1 c9bd
000002c0: f548 19be 2375 88bd 7be9 4e3d acaf b8bd
000002d0: ad98 203e 2fa3 293d 6827 063d 83b1 8cbd
000002e0: b921 923e cfd8 273d cd6b 89bc 9dc2 84bd
000002f0: 4fce a7bd 1789 6e3e 8411 863e 5fa6 a9bd
00000300: 673e 17be 3c59 66bd f602 1c3d 6c5f 09be
00000310: 27a2 253e 7eda 1abd e71b 80be 7a6e 09be
00000320: 6399 8dbe 451e 4a3d 4140 253d ecfe d0bd
00000330: 11ed 2abe 9eda e6bd e1f3 fe3b 88ab 11be
00000340: 9bd0 583e b259 36bd 8eab 543e 6951 923c
00000350: 08d2 603d bff3 67be 7e24 96be 7e85 993d
00000360: 52aa 84bd 4b01 1d3e 8362 053d 84ea 07be
00000370: ae4e fa3d 288a 60b8 7edd 7b3e 09a5 21be
00000380: a4a7 26be e161 9cbd 9035 4d3c 0f1e 3a3e
00000390: 0135 093e 5640 ca3d b674 363c 54a5 89bc
000003a0: 1057 0c3e d5ce 463e fd36 c83d da14 87bd
000003b0: f707 cb3d ece4 83be d9d1 d73d 39d5 2b3e
000003c0: 4bfa da3d 444e 1e3e 3c80 6a3e 516d 35be
000003d0: 99a7 203e 7a0f b13d 231f 083d d5d1 913d
000003e0: 6b36 e23c 1cc8 84bd 26a4 13bd b77b 3f3d
000003f0: 4e49 e7bd 5b99 473e 93f5 a23c 185b 653e
-0.26414275 0.09406997 -0.056862403 0.036432173 -0.08110124 -0.075514816 0.19488497 -0.1675659
0.15695387 0.12532951 0.18556353 -0.04492413 0.14225076 -0.16879621 -0.06564991 -0.085174315
0.03242286 -0.07420803 -0.13532005 -0.0125027625 -0.026683582 0.258036 -0.052537803 0.12026158
-0.08389458 0.10530379 0.18988886 -0.05373196 -0.064374685 -0.25530848 -0.24456738 0.010023255
-0.23684326 0.19627985 -0.07599485 -0.11399718 0.039611313 0.23816667 0.03498335 0.03184198
-0.16354589 -0.13560174 0.061332207 0.09203985 0.09223404 0.2282013 0.017763535 -0.0719707
0.12379111 0.082629934 0.14093469 0.0055853417 0.044577245 -0.13468981 0.2411095 -0.00073731923
0.09677917 0.1469847 0.061811578 -0.0604327 0.01148708 0.13245845 -0.28920883 -0.0422595
0.1286016 -0.04974812 0.13443053 0.15618013 0.07346542 -0.12634702 0.053983547 0.07395212
0.0955404 -0.15613508 0.065129235 0.038620707 -0.22870573 0.2831392 0.1554894 -0.10911447
0.15787478 -0.09219612 -0.12953301 -0.12566386 -0.09497045 -0.2385414 0.2429345 0.10041939
-0.12275389 -0.08931371 0.15569313 0.14074597 -0.1582005 -0.008048722 -0.1952305 0.0032475914
0.16946629 0.020410284 -0.191629 0.06661637 -0.05923884 0.00776373 0.111794434 -0.24703532
0.17893672 0.22939898 -0.009008297 -0.19574271 0.009412166 -0.25691217 -0.06483282 -0.07904538
0.01721927 -0.04133435 0.04370238 -0.089863114 0.054838084 0.003222093 -0.1982687 0.033209365
-0.07187751 0.034949858 0.23023094 0.11661622 -0.09100994 -0.17474863 0.12681645 -0.12573323
0.038573302 0.04930085 0.04535367 -0.052218623 0.08943228 -0.13850617 0.2187855 -0.017233586
-0.015624517 -0.21100439 -0.105021365 0.07888623 -0.20562719 -0.02199576 0.097428866 0.25724623
0.19273281 -0.2361792 -0.25796768 0.1150785 -0.15452392 0.19610892 0.02587962 0.14418183
-0.0058170212 -0.097989045 0.0701313 -0.14132632 -0.016301366 0.009893487 -0.2550362 0.102675416
0.031173049 0.0024148137 0.15945096 -0.023045879 0.11477335 -0.15423597 -0.10599384 0.08459322
-0.19923851 -0.17230996 0.08556895 -0.1258051 0.059356075 -0.17642401 0.02601224 -0.09854319
-0.14969237 -0.06662967 0.050515633 -0.09017882 0.15683241 0.04141539 0.032752424 -0.06869795
0.28541353 0.04097825 -0.016775036 -0.06482432 -0.08193647 0.23294483 0.26185238 -0.08283686
-0.14769898 -0.056237444 0.03808876 -0.13415307 0.16175137 -0.037806027 -0.25021288 -0.1342105
-0.27656087 0.049345274 0.04034448 -0.102048725 -0.16691996 -0.11272167 0.0077805375 -0.1422559
0.21173327 -0.044519134 0.20768568 0.017861085 0.0548878 -0.22651576 -0.29324716 0.07496165
-0.064777985 0.15332524 0.03256465 -0.13273054 0.12222038 -5.353443e-05 0.24596211 -0.15785612
-0.16274887 -0.076358564 0.012524977 0.18175529 0.13399126 0.09875552 0.0111362245 -0.016802467
0.13705087 0.19414838 0.09776113 -0.06595774 0.099136285 -0.2576059 0.10538072 0.16780557
0.10692271 0.15459543 0.2290048 -0.17717482 0.15688933 0.0864553 0.03323282 0.071201004
0.02761384 -0.0648348 -0.036045216 0.046748843 -0.11293279 0.19492094 0.01989249 0.22398031

bnorm.weight f4 [5]
00000000: 8006 973f 4ef0 883f 3405 953f 44e5 943f
00000010: bce2 863f
1.1798859 1.0698335 1.1642213 1.1632466 1.0537944

bnorm.bias f4 [5]
00000000: 937d 663d 7cb3 163e c188 11bd 9431 2c3e
00000010: c961 64bd
0.0562721 0.14716905 -0.03553081 0.16815788 -0.055757318

bnorm.running_mean f4 [5]
00000000: f697 58c2 6266 9ec2 5cbd 07c2 02c2 8c42
00000010: f5b2 b341
-54.1484 -79.19997 -33.93492 70.37892 22.462381

bnorm.running_var f4 [5]
00000000: f4df 824c 7522 344c 6ca8 c74c eaff 814c
00000010: c347 4d4c
6.86161e+07 4.7221204e+07 1.0467824e+08 6.815726e+07 5.3813004e+07

conv_classifier.weight f4 [2, 5, 8, 1]
00000000: 97c6 14be 7d05 30be 2a82 03be 57a2 3bbe
00000010: 82e4 52be 253d cb3e 27e3 ba3d 5d6a a93d
00000020: 751a e93c 6813 c73c 4d4e 00be c2c6 41be
00000030: 9600 cdbe d8d7 51bd 0502 a5be baf4 31be
00000040: f974 653e 2ab9 96bd 4f5b 5b3e b624 6d3e
00000050: 0fdc 963d 6833 f3bd 190d acbe 1b72 5bbe
00000060: 3242 87bd b77c 313e c418 27be 31e6 c9bd
00000070: e211 863e b076 c23d 8c30 9ebc b5e4 7ebe
00000080: 5ec8 35be 78eb c33c a5f5 583e 5080 80be
00000090: cfec a5be b430 4ebe 920b cc3d fd0b babd
000000a0: fe50 d53c 980a 9a3e e838 c53d 1a28 babe
000000b0: 58ab cdbe 1edc 3a3e 4544 6ebe 1380 94be
000000c0: 3fd0 58be c26f 37be 389a 7abc 53a9 1b3e
000000d0: a508 41bd 7339 1f3e 7d66 d1bd 284f dbbd
000000e0: 442c 793e 427f 873e a9da 473e f265 80bd
000000f0: 6a6e ccbd 72d4 afbd bb6f 8fbe a312 4ebe
00000100: 9486 6abe acff 26be 4a3d c3be 931f 61be
00000110: bb24 0f3e 9044 ab3d d420 843d f104 74bd
00000120: 7622 4ebd 7b2d 00be 5b1d 8f3d 2bde 3ebc
00000130: bc2a 653d 3d2b 27bc 98ee 883e fd85 f8bd
-0.14528881 -0.17189594 -0.12842622 -0.18323646 -0.20594981 0.39695087 0.09125357 0.0827224
0.028454999 0.024301246 -0.1252987 -0.18923476 -0.4003951 -0.051231235 -0.32228103 -0.17378512
0.22407903 -0.07359536 0.2142155 0.23158535 0.073661916 -0.11875039 -0.33603743 -0.21430247
-0.06604423 0.17332731 -0.16318041 -0.09858359 0.26185519 0.09495294 -0.019310258 -0.24891932
-0.17752215 0.023915991 0.21187456 -0.25097895 -0.32407233 -0.20135766 0.09963144 -0.09084318
0.026039597 0.30086207 0.09629995 -0.3635872 -0.40169787 0.1824803 -0.2326823 -0.29003963
-0.2117319 -0.17913726 -0.015295558 0.15201311 -0.047127385 0.15549259 -0.10224626 -0.10708457
0.24333292 0.26464278 0.19517006 -0.062694445 -0.09981997 -0.085854426 -0.2801493 -0.20124297
-0.229029 -0.16308469 -0.38132697 -0.21984701 0.13978855 0.08362687 0.06451574 -0.059575025
-0.050325833 -0.1251735 0.06988021 -0.011649649 0.055948958 -0.01020318 0.26744533 -0.12134931

conv_classifier.bias f4 [2]
00000000: 4c3c f33d 4c3c f3bd
0.11876735 -0.11876735
